INFO:root:Training in distributed mode with multiple processes, 1 GPU per process. Process 0, total 2.
INFO:root:I2RNet(
  (features): Sequential(
    (0): Sequential(
      (0): Conv2d(3, 32, kernel_size=(3, 3), stride=(2, 2), padding=(1, 1), bias=False)
      (1): BatchNorm2d(32, eps=1e-05, momentum=0.1, affine=True, track_running_stats=True)
      (2): ReLU6(inplace=True)
    )
    (1): I2RBlock(
      (conv): Sequential(
        (0): Conv2d(32, 32, kernel_size=(3, 3), stride=(1, 1), padding=(1, 1), groups=32, bias=False)
        (1): BatchNorm2d(32, eps=1e-05, momentum=0.1, affine=True, track_running_stats=True)
        (2): ReLU6(inplace=True)
        (3): Conv2d(32, 16, kernel_size=(1, 1), stride=(1, 1), bias=False)
        (4): BatchNorm2d(16, eps=1e-05, momentum=0.1, affine=True, track_running_stats=True)
        (5): Conv2d(16, 96, kernel_size=(1, 1), stride=(1, 1), bias=False)
        (6): BatchNorm2d(96, eps=1e-05, momentum=0.1, affine=True, track_running_stats=True)
        (7): ReLU6(inplace=True)
        (8): Conv2d(96, 96, kernel_size=(3, 3), stride=(2, 2), padding=(1, 1), groups=96, bias=False)
        (9): BatchNorm2d(96, eps=1e-05, momentum=0.1, affine=True, track_running_stats=True)
      )
    )
    (2): I2RBlock(
      (conv): Sequential(
        (0): Conv2d(96, 96, kernel_size=(3, 3), stride=(1, 1), padding=(1, 1), groups=96, bias=False)
        (1): BatchNorm2d(96, eps=1e-05, momentum=0.1, affine=True, track_running_stats=True)
        (2): ReLU6(inplace=True)
        (3): Conv2d(96, 32, kernel_size=(1, 1), stride=(1, 1), bias=False)
        (4): BatchNorm2d(32, eps=1e-05, momentum=0.1, affine=True, track_running_stats=True)
        (5): Conv2d(32, 144, kernel_size=(1, 1), stride=(1, 1), bias=False)
        (6): BatchNorm2d(144, eps=1e-05, momentum=0.1, affine=True, track_running_stats=True)
        (7): ReLU6(inplace=True)
        (8): Conv2d(144, 144, kernel_size=(3, 3), stride=(1, 1), padding=(1, 1), groups=144, bias=False)
        (9): BatchNorm2d(144, eps=1e-05, momentum=0.1, affine=True, track_running_stats=True)
      )
    )
    (3): I2RBlock(
      (conv): Sequential(
        (0): Conv2d(144, 32, kernel_size=(1, 1), stride=(1, 1), bias=False)
        (1): BatchNorm2d(32, eps=1e-05, momentum=0.1, affine=True, track_running_stats=True)
        (2): Conv2d(32, 192, kernel_size=(1, 1), stride=(1, 1), bias=False)
        (3): BatchNorm2d(192, eps=1e-05, momentum=0.1, affine=True, track_running_stats=True)
        (4): ReLU6(inplace=True)
        (5): Conv2d(192, 192, kernel_size=(3, 3), stride=(2, 2), padding=(1, 1), groups=192, bias=False)
        (6): BatchNorm2d(192, eps=1e-05, momentum=0.1, affine=True, track_running_stats=True)
      )
    )
    (4): I2RBlock(
      (conv): Sequential(
        (0): Conv2d(192, 192, kernel_size=(3, 3), stride=(1, 1), padding=(1, 1), groups=192, bias=False)
        (1): BatchNorm2d(192, eps=1e-05, momentum=0.1, affine=True, track_running_stats=True)
        (2): ReLU6(inplace=True)
        (3): Conv2d(192, 32, kernel_size=(1, 1), stride=(1, 1), bias=False)
        (4): BatchNorm2d(32, eps=1e-05, momentum=0.1, affine=True, track_running_stats=True)
        (5): Conv2d(32, 192, kernel_size=(1, 1), stride=(1, 1), bias=False)
        (6): BatchNorm2d(192, eps=1e-05, momentum=0.1, affine=True, track_running_stats=True)
        (7): ReLU6(inplace=True)
        (8): Conv2d(192, 192, kernel_size=(3, 3), stride=(1, 1), padding=(1, 1), groups=192, bias=False)
        (9): BatchNorm2d(192, eps=1e-05, momentum=0.1, affine=True, track_running_stats=True)
      )
    )
    (5): I2RBlock(
      (conv): Sequential(
        (0): Conv2d(192, 192, kernel_size=(3, 3), stride=(1, 1), padding=(1, 1), groups=192, bias=False)
        (1): BatchNorm2d(192, eps=1e-05, momentum=0.1, affine=True, track_running_stats=True)
        (2): ReLU6(inplace=True)
        (3): Conv2d(192, 32, kernel_size=(1, 1), stride=(1, 1), bias=False)
        (4): BatchNorm2d(32, eps=1e-05, momentum=0.1, affine=True, track_running_stats=True)
        (5): Conv2d(32, 192, kernel_size=(1, 1), stride=(1, 1), bias=False)
        (6): BatchNorm2d(192, eps=1e-05, momentum=0.1, affine=True, track_running_stats=True)
        (7): ReLU6(inplace=True)
        (8): Conv2d(192, 192, kernel_size=(3, 3), stride=(1, 1), padding=(1, 1), groups=192, bias=False)
        (9): BatchNorm2d(192, eps=1e-05, momentum=0.1, affine=True, track_running_stats=True)
      )
    )
    (6): I2RBlock(
      (conv): Sequential(
        (0): Conv2d(192, 48, kernel_size=(1, 1), stride=(1, 1), bias=False)
        (1): BatchNorm2d(48, eps=1e-05, momentum=0.1, affine=True, track_running_stats=True)
        (2): Conv2d(48, 288, kernel_size=(1, 1), stride=(1, 1), bias=False)
        (3): BatchNorm2d(288, eps=1e-05, momentum=0.1, affine=True, track_running_stats=True)
        (4): ReLU6(inplace=True)
        (5): Conv2d(288, 288, kernel_size=(3, 3), stride=(2, 2), padding=(1, 1), groups=288, bias=False)
        (6): BatchNorm2d(288, eps=1e-05, momentum=0.1, affine=True, track_running_stats=True)
      )
    )
    (7): I2RBlock(
      (conv): Sequential(
        (0): Conv2d(288, 288, kernel_size=(3, 3), stride=(1, 1), padding=(1, 1), groups=288, bias=False)
        (1): BatchNorm2d(288, eps=1e-05, momentum=0.1, affine=True, track_running_stats=True)
        (2): ReLU6(inplace=True)
        (3): Conv2d(288, 48, kernel_size=(1, 1), stride=(1, 1), bias=False)
        (4): BatchNorm2d(48, eps=1e-05, momentum=0.1, affine=True, track_running_stats=True)
        (5): Conv2d(48, 288, kernel_size=(1, 1), stride=(1, 1), bias=False)
        (6): BatchNorm2d(288, eps=1e-05, momentum=0.1, affine=True, track_running_stats=True)
        (7): ReLU6(inplace=True)
        (8): Conv2d(288, 288, kernel_size=(3, 3), stride=(1, 1), padding=(1, 1), groups=288, bias=False)
        (9): BatchNorm2d(288, eps=1e-05, momentum=0.1, affine=True, track_running_stats=True)
      )
    )
    (8): I2RBlock(
      (conv): Sequential(
        (0): Conv2d(288, 288, kernel_size=(3, 3), stride=(1, 1), padding=(1, 1), groups=288, bias=False)
        (1): BatchNorm2d(288, eps=1e-05, momentum=0.1, affine=True, track_running_stats=True)
        (2): ReLU6(inplace=True)
        (3): Conv2d(288, 48, kernel_size=(1, 1), stride=(1, 1), bias=False)
        (4): BatchNorm2d(48, eps=1e-05, momentum=0.1, affine=True, track_running_stats=True)
        (5): Conv2d(48, 288, kernel_size=(1, 1), stride=(1, 1), bias=False)
        (6): BatchNorm2d(288, eps=1e-05, momentum=0.1, affine=True, track_running_stats=True)
        (7): ReLU6(inplace=True)
        (8): Conv2d(288, 288, kernel_size=(3, 3), stride=(1, 1), padding=(1, 1), groups=288, bias=False)
        (9): BatchNorm2d(288, eps=1e-05, momentum=0.1, affine=True, track_running_stats=True)
      )
    )
    (9): I2RBlock(
      (conv): Sequential(
        (0): Conv2d(288, 64, kernel_size=(1, 1), stride=(1, 1), bias=False)
        (1): BatchNorm2d(64, eps=1e-05, momentum=0.1, affine=True, track_running_stats=True)
        (2): Conv2d(64, 384, kernel_size=(1, 1), stride=(1, 1), bias=False)
        (3): BatchNorm2d(384, eps=1e-05, momentum=0.1, affine=True, track_running_stats=True)
        (4): ReLU6(inplace=True)
      )
    )
    (10): I2RBlock(
      (conv): Sequential(
        (0): Conv2d(384, 384, kernel_size=(3, 3), stride=(1, 1), padding=(1, 1), groups=384, bias=False)
        (1): BatchNorm2d(384, eps=1e-05, momentum=0.1, affine=True, track_running_stats=True)
        (2): ReLU6(inplace=True)
        (3): Conv2d(384, 64, kernel_size=(1, 1), stride=(1, 1), bias=False)
        (4): BatchNorm2d(64, eps=1e-05, momentum=0.1, affine=True, track_running_stats=True)
        (5): Conv2d(64, 384, kernel_size=(1, 1), stride=(1, 1), bias=False)
        (6): BatchNorm2d(384, eps=1e-05, momentum=0.1, affine=True, track_running_stats=True)
        (7): ReLU6(inplace=True)
        (8): Conv2d(384, 384, kernel_size=(3, 3), stride=(1, 1), padding=(1, 1), groups=384, bias=False)
        (9): BatchNorm2d(384, eps=1e-05, momentum=0.1, affine=True, track_running_stats=True)
      )
    )
    (11): I2RBlock(
      (conv): Sequential(
        (0): Conv2d(384, 384, kernel_size=(3, 3), stride=(1, 1), padding=(1, 1), groups=384, bias=False)
        (1): BatchNorm2d(384, eps=1e-05, momentum=0.1, affine=True, track_running_stats=True)
        (2): ReLU6(inplace=True)
        (3): Conv2d(384, 64, kernel_size=(1, 1), stride=(1, 1), bias=False)
        (4): BatchNorm2d(64, eps=1e-05, momentum=0.1, affine=True, track_running_stats=True)
        (5): Conv2d(64, 384, kernel_size=(1, 1), stride=(1, 1), bias=False)
        (6): BatchNorm2d(384, eps=1e-05, momentum=0.1, affine=True, track_running_stats=True)
        (7): ReLU6(inplace=True)
        (8): Conv2d(384, 384, kernel_size=(3, 3), stride=(1, 1), padding=(1, 1), groups=384, bias=False)
        (9): BatchNorm2d(384, eps=1e-05, momentum=0.1, affine=True, track_running_stats=True)
      )
    )
    (12): I2RBlock(
      (conv): Sequential(
        (0): Conv2d(384, 384, kernel_size=(3, 3), stride=(1, 1), padding=(1, 1), groups=384, bias=False)
        (1): BatchNorm2d(384, eps=1e-05, momentum=0.1, affine=True, track_running_stats=True)
        (2): ReLU6(inplace=True)
        (3): Conv2d(384, 64, kernel_size=(1, 1), stride=(1, 1), bias=False)
        (4): BatchNorm2d(64, eps=1e-05, momentum=0.1, affine=True, track_running_stats=True)
        (5): Conv2d(64, 384, kernel_size=(1, 1), stride=(1, 1), bias=False)
        (6): BatchNorm2d(384, eps=1e-05, momentum=0.1, affine=True, track_running_stats=True)
        (7): ReLU6(inplace=True)
        (8): Conv2d(384, 384, kernel_size=(3, 3), stride=(1, 1), padding=(1, 1), groups=384, bias=False)
        (9): BatchNorm2d(384, eps=1e-05, momentum=0.1, affine=True, track_running_stats=True)
      )
    )
    (13): I2RBlock(
      (conv): Sequential(
        (0): Conv2d(384, 96, kernel_size=(1, 1), stride=(1, 1), bias=False)
        (1): BatchNorm2d(96, eps=1e-05, momentum=0.1, affine=True, track_running_stats=True)
        (2): Conv2d(96, 576, kernel_size=(1, 1), stride=(1, 1), bias=False)
        (3): BatchNorm2d(576, eps=1e-05, momentum=0.1, affine=True, track_running_stats=True)
        (4): ReLU6(inplace=True)
        (5): Conv2d(576, 576, kernel_size=(3, 3), stride=(2, 2), padding=(1, 1), groups=576, bias=False)
        (6): BatchNorm2d(576, eps=1e-05, momentum=0.1, affine=True, track_running_stats=True)
      )
    )
    (14): I2RBlock(
      (conv): Sequential(
        (0): Conv2d(576, 576, kernel_size=(3, 3), stride=(1, 1), padding=(1, 1), groups=576, bias=False)
        (1): BatchNorm2d(576, eps=1e-05, momentum=0.1, affine=True, track_running_stats=True)
        (2): ReLU6(inplace=True)
        (3): Conv2d(576, 96, kernel_size=(1, 1), stride=(1, 1), bias=False)
        (4): BatchNorm2d(96, eps=1e-05, momentum=0.1, affine=True, track_running_stats=True)
        (5): Conv2d(96, 576, kernel_size=(1, 1), stride=(1, 1), bias=False)
        (6): BatchNorm2d(576, eps=1e-05, momentum=0.1, affine=True, track_running_stats=True)
        (7): ReLU6(inplace=True)
        (8): Conv2d(576, 576, kernel_size=(3, 3), stride=(1, 1), padding=(1, 1), groups=576, bias=False)
        (9): BatchNorm2d(576, eps=1e-05, momentum=0.1, affine=True, track_running_stats=True)
      )
    )
    (15): I2RBlock(
      (conv): Sequential(
        (0): Conv2d(576, 576, kernel_size=(3, 3), stride=(1, 1), padding=(1, 1), groups=576, bias=False)
        (1): BatchNorm2d(576, eps=1e-05, momentum=0.1, affine=True, track_running_stats=True)
        (2): ReLU6(inplace=True)
        (3): Conv2d(576, 96, kernel_size=(1, 1), stride=(1, 1), bias=False)
        (4): BatchNorm2d(96, eps=1e-05, momentum=0.1, affine=True, track_running_stats=True)
        (5): Conv2d(96, 576, kernel_size=(1, 1), stride=(1, 1), bias=False)
        (6): BatchNorm2d(576, eps=1e-05, momentum=0.1, affine=True, track_running_stats=True)
        (7): ReLU6(inplace=True)
        (8): Conv2d(576, 576, kernel_size=(3, 3), stride=(1, 1), padding=(1, 1), groups=576, bias=False)
        (9): BatchNorm2d(576, eps=1e-05, momentum=0.1, affine=True, track_running_stats=True)
      )
    )
    (16): I2RBlock(
      (conv): Sequential(
        (0): Conv2d(576, 576, kernel_size=(3, 3), stride=(1, 1), padding=(1, 1), groups=576, bias=False)
        (1): BatchNorm2d(576, eps=1e-05, momentum=0.1, affine=True, track_running_stats=True)
        (2): ReLU6(inplace=True)
        (3): Conv2d(576, 96, kernel_size=(1, 1), stride=(1, 1), bias=False)
        (4): BatchNorm2d(96, eps=1e-05, momentum=0.1, affine=True, track_running_stats=True)
        (5): Conv2d(96, 576, kernel_size=(1, 1), stride=(1, 1), bias=False)
        (6): BatchNorm2d(576, eps=1e-05, momentum=0.1, affine=True, track_running_stats=True)
        (7): ReLU6(inplace=True)
        (8): Conv2d(576, 576, kernel_size=(3, 3), stride=(1, 1), padding=(1, 1), groups=576, bias=False)
        (9): BatchNorm2d(576, eps=1e-05, momentum=0.1, affine=True, track_running_stats=True)
      )
    )
    (17): I2RBlock(
      (conv): Sequential(
        (0): Conv2d(576, 160, kernel_size=(1, 1), stride=(1, 1), bias=False)
        (1): BatchNorm2d(160, eps=1e-05, momentum=0.1, affine=True, track_running_stats=True)
        (2): Conv2d(160, 960, kernel_size=(1, 1), stride=(1, 1), bias=False)
        (3): BatchNorm2d(960, eps=1e-05, momentum=0.1, affine=True, track_running_stats=True)
        (4): ReLU6(inplace=True)
      )
    )
    (18): I2RBlock(
      (conv): Sequential(
        (0): Conv2d(960, 960, kernel_size=(3, 3), stride=(1, 1), padding=(1, 1), groups=960, bias=False)
        (1): BatchNorm2d(960, eps=1e-05, momentum=0.1, affine=True, track_running_stats=True)
        (2): ReLU6(inplace=True)
        (3): Conv2d(960, 160, kernel_size=(1, 1), stride=(1, 1), bias=False)
        (4): BatchNorm2d(160, eps=1e-05, momentum=0.1, affine=True, track_running_stats=True)
        (5): Conv2d(160, 960, kernel_size=(1, 1), stride=(1, 1), bias=False)
        (6): BatchNorm2d(960, eps=1e-05, momentum=0.1, affine=True, track_running_stats=True)
        (7): ReLU6(inplace=True)
        (8): Conv2d(960, 960, kernel_size=(3, 3), stride=(1, 1), padding=(1, 1), groups=960, bias=False)
        (9): BatchNorm2d(960, eps=1e-05, momentum=0.1, affine=True, track_running_stats=True)
      )
    )
    (19): I2RBlock(
      (conv): Sequential(
        (0): Conv2d(960, 960, kernel_size=(3, 3), stride=(1, 1), padding=(1, 1), groups=960, bias=False)
        (1): BatchNorm2d(960, eps=1e-05, momentum=0.1, affine=True, track_running_stats=True)
        (2): ReLU6(inplace=True)
        (3): Conv2d(960, 160, kernel_size=(1, 1), stride=(1, 1), bias=False)
        (4): BatchNorm2d(160, eps=1e-05, momentum=0.1, affine=True, track_running_stats=True)
        (5): Conv2d(160, 960, kernel_size=(1, 1), stride=(1, 1), bias=False)
        (6): BatchNorm2d(960, eps=1e-05, momentum=0.1, affine=True, track_running_stats=True)
        (7): ReLU6(inplace=True)
        (8): Conv2d(960, 960, kernel_size=(3, 3), stride=(1, 1), padding=(1, 1), groups=960, bias=False)
        (9): BatchNorm2d(960, eps=1e-05, momentum=0.1, affine=True, track_running_stats=True)
      )
    )
    (20): I2RBlock(
      (conv): Sequential(
        (0): Conv2d(960, 960, kernel_size=(3, 3), stride=(1, 1), padding=(1, 1), groups=960, bias=False)
        (1): BatchNorm2d(960, eps=1e-05, momentum=0.1, affine=True, track_running_stats=True)
        (2): ReLU6(inplace=True)
        (3): Conv2d(960, 208, kernel_size=(1, 1), stride=(1, 1), bias=False)
        (4): BatchNorm2d(208, eps=1e-05, momentum=0.1, affine=True, track_running_stats=True)
        (5): Conv2d(208, 1280, kernel_size=(1, 1), stride=(1, 1), bias=False)
        (6): BatchNorm2d(1280, eps=1e-05, momentum=0.1, affine=True, track_running_stats=True)
        (7): ReLU6(inplace=True)
        (8): Conv2d(1280, 1280, kernel_size=(3, 3), stride=(1, 1), padding=(1, 1), groups=1280, bias=False)
        (9): BatchNorm2d(1280, eps=1e-05, momentum=0.1, affine=True, track_running_stats=True)
      )
    )
  )
  (avgpool): AdaptiveAvgPool2d(output_size=(1, 1))
  (classifier): Sequential(
    (0): Dropout(p=0.2, inplace=False)
    (1): Linear(in_features=1280, out_features=1000, bias=True)
  )
)
INFO:root:Loaded checkpoint 'output/74_09_i2rnetv3_half_id/model_best.pth.tar' (epoch 197)
WARNING:root:Failed to find state_dict_ema, starting from loaded model weights
O:root:	interpolation: bicubic
INFO:root:	mean: (0.485, 0.456, 0.406)
INFO:root:	std: (0.229, 0.224, 0.225)
INFO:root:	crop_pct: 0.875
INFO:root:NVIDIA APEX installed. AMP off.
…
